set learning phase to 0
word index: 38
X shape after padding: (256, 15)
____________________________________________________________________________________________________
Layer (type)                     Output Shape          Param #     Connected to                     
====================================================================================================
Discriminator_Input (InputLayer) (None, 15)            0                                            
____________________________________________________________________________________________________
embedding_1 (Embedding)          (None, 15, 20)        760         Discriminator_Input[0][0]        
____________________________________________________________________________________________________
discr_conv0 (Conv1D)             (None, 15, 20)        820         embedding_1[0][0]                
____________________________________________________________________________________________________
discr_conv1 (Conv1D)             (None, 15, 10)        610         embedding_1[0][0]                
____________________________________________________________________________________________________
discr_dropout0 (Dropout)         (None, 15, 20)        0           discr_conv0[0][0]                
____________________________________________________________________________________________________
discr_dropout1 (Dropout)         (None, 15, 10)        0           discr_conv1[0][0]                
____________________________________________________________________________________________________
max_pooling1d_1 (MaxPooling1D)   (None, 7, 20)         0           discr_dropout0[0][0]             
____________________________________________________________________________________________________
max_pooling1d_2 (MaxPooling1D)   (None, 7, 10)         0           discr_dropout1[0][0]             
____________________________________________________________________________________________________
concatenate_1 (Concatenate)      (None, 7, 30)         0           max_pooling1d_1[0][0]            
                                                                   max_pooling1d_2[0][0]            
____________________________________________________________________________________________________
lstm_1 (LSTM)                    (None, 128)           81408       concatenate_1[0][0]              
====================================================================================================
Total params: 83,598
Trainable params: 83,598
Non-trainable params: 0
____________________________________________________________________________________________________
____________________________________________________________________________________________________
Layer (type)                     Output Shape          Param #     Connected to                     
====================================================================================================
Generator_Input (InputLayer)     (None, 128)           0                                            
____________________________________________________________________________________________________
gen_repeate_vec (RepeatVector)   (None, 15, 128)       0           Generator_Input[0][0]            
____________________________________________________________________________________________________
gen_LSTM (LSTM)                  (None, 15, 128)       131584      gen_repeate_vec[0][0]            
____________________________________________________________________________________________________
gen_conv0 (Conv1D)               (None, 15, 20)        5140        gen_LSTM[0][0]                   
____________________________________________________________________________________________________
gen_conv1 (Conv1D)               (None, 15, 10)        3850        gen_LSTM[0][0]                   
____________________________________________________________________________________________________
gen_dropout0 (Dropout)           (None, 15, 20)        0           gen_conv0[0][0]                  
_______________